…
This validation accuracy was lower than the one obtained in the previous task. However, a pattern was that the accuracy was generally increasing on average after each epoch. Hence, ideally it would have been better to run more epochs, but that would also not be as computationally efficient, which is why it was limited to 10 epochs in this case. 

The full model summary and the results per epoch figure are:

<<eval = FALSE >>=
RS_results$best_mode$model

 Layer (type)                      Output Shape                Param #   
================================================================================
 conv2d_11 (Conv2D)                (None, 22, 22, 32)         1600            
 max_pooling2d_5 (MaxPooling2D)    (None, 11, 11, 32)         0                 
 conv2d_10 (Conv2D)                (None, 5, 5, 32)           50208             
 flatten_5 (Flatten)               (None, 800)                0                 
 dense_11 (Dense)                  (None, 32)                 25632             
 dense_10 (Dense)                  (None, 10)                 330               
================================================================================
Total params: 77770 (303.79 KB)
Trainable params: 77770 (303.79 KB)
Non-trainable params: 0 (0.00 Byte)
_____________________________________
@


<<eval=FALSE>>=
plot(RS_results$best_model$model_history)
@

<<fig.cap = "best model results">>=
knitr::include_graphics("best_model.png")
@


\subsection{1.6}
…
